model/model.pth (torch, 147351 bytes, 6 tensors)

block1.0.weight f4 [256, 11]
000000 c4 93 b9 be 9a 5e 8e 3e 25 0e 0d be d4 a3 d1 3d
       -0.3624555 0.2780655 -0.13774927 0.10236326
000010 24 1b 62 be 08 bc e5 bd e0 93 8f be 55 b7 be 3d
       -0.22080666 -0.11217505 -0.28042507 0.093123116
000020 e1 d5 be 3e 87 76 4e be 6e bd 78 be 67 d2 97 3e
       0.37272552 -0.20162402 -0.24291012 0.29652712
000030 90 6f f1 3e 21 cb 44 3e 16 13 58 3e a8 1a 8b 3d
       0.47155428 0.19218113 0.2110103 0.06792194
000040 24 ba 9c be 22 f8 ea bd 7d f8 e3 be 8d 47 c0 3d
       -0.30610764 -0.11473109 -0.4452552 0.09388647
000050 17 fa 06 bd ea 05 f1 3d e8 b7 bf 3c 0e fd df be
       -0.032953348 0.11768706 0.023403123 -0.43747753
000060 c4 49 0f 3f 3f ac c1 bd 40 81 5c 3e c2 15 05 be
       0.5597193 -0.094566815 0.2153368 -0.12996581
000070 3e 64 73 3d ed 16 3b be d2 78 83 3e 13 c8 25 bd
       0.05942177 -0.18270464 0.25678116 -0.04047401
000080 76 de 97 3d 57 bb f2 bd 3e 59 5e bd d6 d0 54 3e
       0.07415478 -0.118521385 -0.054284327 0.2078279
000090 4f b6 5f 3d 2f 3a 98 bd 90 5c 08 be 73 07 5b 3c
       0.054617222 -0.07432973 -0.1331656 0.013368475
0000a0 f3 32 a2 3c 58 b4 0a 3e fd 03 eb bd 06 1e 54 3e
       0.019799685 0.13545358 -0.1147537 0.20714578
0000b0 8c 80 89 3e 87 85 8c 3b 19 90 87 3d ad 5c 94 bd
       0.26855886 0.0042883786 0.06619281 -0.07244239
0000c0 13 22 81 bd e0 cf bd 3e 52 46 66 be 04 9e 9c 3c
       -0.06305327 0.3707266 -0.22487763 0.019118316
0000d0 18 f1 be be b8 f5 e4 be 4c de 4b be e8 b0 3c be
       -0.37293315 -0.4471872 -0.19909018 -0.1842686
0000e0 a5 8a 91 be e0 90 fa 3d 52 bc 9d bd 1e df 28 be
       -0.2842609 0.12234664 -0.07701935 -0.16491362
0000f0 8d e5 af 3e 21 6c b8 3e 7d 66 01 bf cc be af be
       0.3435482 0.36019996 -0.5054701 -0.34325254
000100 f2 5a 16 be 32 04 8a bc 95 6b e7 be 90 d1 04 3f
       -0.1468313 -0.016847704 -0.45199266 0.51882267
000110 57 23 d2 bd 67 79 59 be 35 10 a0 3d ab d7 45 bd
       -0.10260647 -0.21237718 0.07815591 -0.04830138
000120 46 9d 31 3e bd 71 45 be 3e 0e 23 be f4 ea 78 bc
       0.17345151 -0.19281669 -0.15923402 -0.015192736
000130 a5 e7 c3 bc f0 dc d2 bc 8f 94 cf 3d c3 1e 9d be
       -0.023914168 -0.025740117 0.10135757 -0.30687532
000140 b6 66 bb 3d cb 8e 9b be 89 d3 81 3d 26 10 c1 bd
       0.0915045 -0.3038238 0.06339175 -0.09426908
000150 62 62 b7 bd d6 f8 8a be 97 76 d9 3d 67 ce 8e 3c
       -0.08954312 -0.27142972 0.10618322 0.017432405
000160 a9 3c 80 3c 54 8b 3f 3c e2 ab 03 3d 70 97 8d be
       0.015653925 0.011690933 0.032146342 -0.276546
000170 4f 3b 49 be 12 d1 ac be c1 92 3a 3e 43 00 02 3d
       -0.1965153 -0.33753258 0.18220045 0.03173853
000180 71 b2 1c be 88 61 67 be fa 5f 79 be 41 c2 a5 3e
       -0.15302445 -0.22595799 -0.24353018 0.32374766
000190 1d 67 3e bf b0 6e 2b 3e 70 94 3b 3e d1 14 bf 3d
       -0.7437609 0.16741443 0.18318343 0.09330142
0001a0 a5 0d f6 bd bc d9 80 bd 0b 51 b3 3c 0b d2 cc 3d
       -0.12014321 -0.062915295 0.02188923 0.10001
0001b0 11 86 a8 3e de b7 9c 3e 12 da b8 3e 20 47 b3 3e
       0.32914785 0.3060903 0.36103874 0.35015202
0001c0 4b 9a 22 bf 6e 47 1b 3e c7 69 07 3d 6d 2a 53 3d
       -0.6351668 0.15163967 0.03305986 0.051554132
0001d0 0d 4d 8f 3e 64 4f 53 be 96 1f e6 3d c6 bc df bd
       0.27988473 -0.20635754 0.11236493 -0.109246776
0001e0 93 38 a2 3e e9 41 d4 bd de 53 89 3e 8a 5d a3 3d
       0.31683788 -0.10364134 0.26821798 0.079768255
0001f0 a9 6d 11 be 9c a9 cf be ba fb 82 be 8f 4a 4c be
       -0.14201988 -0.4055909 -0.25582677 -0.19950317
000200 47 ab 83 be bd 9c 74 be a3 25 9a be f0 9f b1 be
       -0.25716612 -0.23887916 -0.3010684 -0.34692335
000210 4b 47 80 3e 3d e1 a9 be a5 f3 1e bc c4 41 a7 be
       0.25054392 -0.33179656 -0.009701644 -0.32667363
000220 b1 0b 53 be 63 1a de 3d 7a b6 13 bc 11 79 f0 bd
       -0.20609929 0.108448766 -0.009015674 -0.117418416
000230 b6 b2 2f be 01 44 86 bd b4 39 ba 3c c9 c1 6b 3e
       -0.17158017 -0.065559395 0.022732593 0.23023142
000240 d8 06 33 bf b9 16 76 3e ac b9 eb bc 8c 81 bf bd
       -0.6993232 0.24032106 -0.028775059 -0.09350881
000250 ba cf 08 3e 79 d2 9d be 8c ac 64 3e 58 46 42 3e
       0.13360491 -0.3082464 0.22331446 0.18972147
000260 00 48 17 3e 66 57 c5 3e b0 eb 21 bc 93 bc 55 be
       0.1477356 0.38543242 -0.009882852 -0.20872717
000270 c8 0c 99 bc bd b4 ef 3d 0e b5 5e be e6 ad 88 bd
       -0.018682852 0.11704395 -0.21748754 -0.066737935
000280 6c 96 03 be 42 88 84 be f9 68 a5 3d ea 69 9b be
       -0.1285035 -0.25885206 0.080766626 -0.30354244
000290 f2 f7 fc bd c9 1f 9b be 04 47 40 3e 1b 29 1f be
       -0.12351979 -0.30297688 0.1877709 -0.15543024
0002a0 7f 98 7c 3e a7 41 63 3e 96 ac 81 be e1 fd 4f be
       0.24667548 0.22193013 -0.25326985 -0.20311691
0002b0 f5 df ba be 56 10 9f be 59 a8 23 3d d3 31 bd bd
       -0.3649899 -0.3106715 0.03995547 -0.09238019
0002c0 4c c1 2e 3e bb eb 72 be 78 36 a1 bd b9 36 47 be
       0.17065924 -0.23722737 -0.07871717 -0.19454469
0002d0 f9 80 9a 3e f5 89 8b ba ea be cf be 82 1e 1b bf
       0.30176523 -0.0010645973 -0.40575343 -0.60593426
0002e0 91 d7 38 3e 27 2b 9b be 38 1c 9c be ec 69 fe bd
       0.18050982 -0.3030636 -0.3049028 -0.12422547
0002f0 17 de b4 bd bd 0e 0b be 2e 34 c9 3e f1 af bd 3d
       -0.08831423 -0.13579841 0.39297622 0.09262074
000300 27 73 84 3e 70 77 85 3e 56 82 ad 3d 7e 9c 19 bf
       0.25869104 0.26067686 0.08472125 -0.60004413
000310 19 5f 8b bb 8c 65 f4 be e7 12 8c 3e c6 0c 11 3f
       -0.00425328 -0.47733724 0.2735817 0.56660116
000320 04 b5 3e 3f 8a 3a a4 be d7 4f 4d 3c c7 73 d8 be
       0.7449496 -0.32075912 0.012531242 -0.4227583
000330 26 5d 1c 3d 53 69 01 bf 49 1b d9 bd 9f b8 a3 be
       0.03817477 -0.50551337 -0.10600907 -0.31976792
000340 52 03 45 be b7 f3 26 bf b1 95 39 3e 4c 9b d0 bc
       -0.19239548 -0.6521563 0.18123509 -0.025464676
000350 7b 11 86 3e b2 9c b5 3d ef 18 98 be 68 f5 89 be
       0.26185212 0.08867778 -0.29706523 -0.26945043
000360 8c 8f 48 3e 2d 63 d9 be 95 18 9f be 81 3c b9 be
       0.19586009 -0.42458478 -0.31073442 -0.36178973
000370 0d dc 96 be d7 21 1c 3d 02 a4 b5 3d 0d 99 53 be
       -0.2946476 0.03811821 0.08869173 -0.20663853
000380 d0 f5 a4 be c0 bb d2 be 93 b0 74 be 88 d1 2d be
       -0.3221879 -0.41158867 -0.23895483 -0.16974461
000390 d6 de 9f bc 4b d9 39 3d 3a 8e 3a be dc ea 22 bf
       -0.019515436 0.045373242 -0.18218318 -0.63639617
0003a0 bd 42 2a bf 2e b8 92 3e 78 0d ea 3c 8a 49 87 3d
       -0.66508085 0.28656143 0.028570876 0.06605823
0003b0 44 de 6d be a5 c0 c7 3d 99 79 04 be 6e fa 02 3f
       -0.23229319 0.09753541 -0.12937011 0.51163375
0003c0 cf 26 4f be be 2d 94 3d 1c 3f 59 3d f0 ae 19 3f
       -0.20229648 0.07235287 0.0530387 0.6003256
0003d0 86 16 f3 3e 8e a6 5b be 0d 99 71 be b7 04 5d be
       0.47478122 -0.21450254 -0.2359354 -0.2158383
0003e0 b6 90 cb be 6f ff d6 be cd eb 94 be 6c ca 49 be
       -0.39758843 -0.41991755 -0.29086152 -0.19706124
0003f0 b0 2d b5 be 11 92 4d 3e 1c 93 bc 3d 76 bb a0 be
       -0.3538642 0.20075251 0.092077464 -0.3139302

block1.0.bias f4 [256]
000000 9a 39 85 3e ba 2b 1f bd 57 2a c6 bc f0 6c fb be
       0.2602051 -0.03886006 -0.024190111 -0.4910655
000010 59 01 ea 3b 41 fe b4 3d ca 57 71 bd 3b 6d e9 be
       0.007141274 0.088375576 -0.058921613 -0.4559115
000020 5c dc b2 be c2 ba 71 be 88 c8 35 be 9e a7 fe bb
       -0.34933746 -0.23606399 -0.17752278 -0.0077714464
000030 0a 38 e8 be d5 a5 71 be 45 19 aa be cc b5 15 3b
       -0.45355254 -0.23598416 -0.33222404 0.0022843955
000040 a6 45 71 be c6 74 70 3e 3c 52 d9 3d 86 fe 30 3c
       -0.23561725 0.23482046 0.10611388 0.010802871
000050 96 11 fc bd f7 e5 9b bd ee c2 06 3a 30 0c 1c be
       -0.12308042 -0.07612222 0.0005140741 -0.15239024
000060 ff 03 a5 be fd 12 48 3d 71 9f cd be ff 2d 37 bd
       -0.3222961 0.048846234 -0.40160707 -0.0447216
000070 84 3a 6a bd b9 07 eb bd 81 b0 8f be 13 71 52 bc
       -0.05718471 -0.11476082 -0.2806435 -0.012844342
000080 9b 88 c5 bd 97 f9 95 be 13 fa 5f be 32 1b ff bd
       -0.09645196 -0.29291984 -0.2187274 -0.12456359
000090 68 5d 83 be b9 b5 ab be 9a 2e cd bd 84 63 1b be
       -0.256572 -0.3353708 -0.10018654 -0.15174681
0000a0 be 09 ad 3c 2b 5b de 3d 93 7f 98 be bd 23 61 be
       0.02112281 0.10857233 -0.2978483 -0.2198629
0000b0 86 d2 25 be 9c 27 75 be e3 32 97 be 8a 34 95 be
       -0.1619359 -0.23940891 -0.2953101 -0.29141647
0000c0 28 e1 63 be 64 64 a1 be 51 80 d5 be 48 9a 69 be
       -0.22253859 -0.31521904 -0.4169946 -0.2281276
0000d0 a3 5f 9b bd ee a8 66 be d3 5e ba bd 33 c6 f3 3d
       -0.07586601 -0.22525379 -0.091001175 0.11903038
0000e0 35 24 d6 3d cb 78 93 be 62 da b6 bd 28 20 36 be
       0.10456125 -0.28803095 -0.08928372 -0.17785704
0000f0 23 2f 53 3b 6a 84 18 bd c6 96 77 be 14 00 a6 be
       0.003222414 -0.037235655 -0.24178609 -0.32421935
000100 4d 9a 0b be d8 74 a9 be 10 5d ee bd aa 6b 5b 3d
       -0.1363308 -0.33096957 -0.11638844 0.053569473
000110 ba 0b b7 be c7 1b 9e bd d1 dc a3 bd 69 50 48 be
       -0.35751134 -0.07720142 -0.08001102 -0.19561924
000120 c9 9e 8f bd b5 58 eb be fc 18 af be 8b f7 4c bd
       -0.07012708 -0.45966116 -0.3419875 -0.050040763
000130 e9 a3 6b be dc 7b 34 be d7 a0 5d be c3 56 6b be
       -0.23011746 -0.17625374 -0.21643387 -0.22982316
000140 da 3e c7 bd 06 0d fb bd 5a bc 8c bd 00 d7 30 bd
       -0.09728785 -0.122583434 -0.06871863 -0.04317379
000150 24 a4 53 be 50 dc 8e 3d e0 9f 55 be f3 94 11 bd
       -0.20668083 0.06975615 -0.20861769 -0.03554244
000160 4d 78 21 3e b8 f6 9e bd 37 cc 09 be 5a 85 f1 bd
       0.15768547 -0.077619016 -0.13456808 -0.11793013
000170 8d 98 32 3d 29 28 02 3e 0e 2e 90 be 5e 94 45 3d
       0.043602515 0.12710632 -0.28160137 0.048237197
000180 6c c4 b9 3b 0f 53 53 3d 96 01 8d be ea cc 5a bc
       0.0056691673 0.051592883 -0.27540272 -0.013354519
000190 b9 49 3e bd 78 07 89 be 06 fb 96 be e3 8b 7e be
       -0.046457026 -0.2676351 -0.2948839 -0.2485805
0001a0 03 88 bf be 8f 8f d4 be f6 11 22 3e fc f2 b9 3c
       -0.37408456 -0.41515777 0.15827164 0.022698872
0001b0 fd 1f ad be d4 08 a6 be 02 70 bc be a1 2f a7 be
       -0.33813468 -0.3242861 -0.36804205 -0.32653525
0001c0 7d 57 7c be f7 0b 00 be 32 1f bf 3c 20 b8 9b be
       -0.24642749 -0.12504564 0.023330305 -0.30413914
0001d0 a4 41 a7 bd 5e d7 ec be 6e 03 9c be 2f 07 f4 bd
       -0.08166817 -0.46258062 -0.30471367 -0.11915433
0001e0 2b ff 97 be be 6b 8d be 21 c1 5c be 77 d7 b2 be
       -0.29686865 -0.27621263 -0.21558048 -0.34930012
0001f0 2e 71 b0 3d 8f de f1 be 59 d9 3f be 37 91 98 be
       0.08615337 -0.4724011 -0.18735255 -0.2979829
000200 97 f4 c5 be 18 73 d4 3c cf 39 b3 be 4f 2f 4e be
       -0.3866317 0.025933787 -0.35005042 -0.20135234
000210 47 d3 a4 be fe ec fc 3d 49 85 6d be 00 67 d1 bd
       -0.32192442 0.1234989 -0.23195376 -0.10224724
000220 81 77 b3 3d 6e 53 6c be 4c 86 d6 be 01 57 c3 bd
       0.08763028 -0.23078701 -0.41899335 -0.09538079
000230 e7 00 9b 3e 94 8d b8 3d 3c 86 26 be 54 15 4c be
       0.30274126 0.09011379 -0.16262144 -0.19930011
000240 3d 98 52 3e d6 73 8d 3d c4 82 91 bd b6 6c ad be
       0.20565887 0.069068596 -0.0710502 -0.33872002
000250 91 48 6b be 26 a9 a3 be 51 7e 64 bd bf 04 f2 bd
       -0.229769 -0.31964988 -0.055784527 -0.118173115
000260 68 d1 cc bd c3 18 7d be 91 f9 18 3e 50 f2 62 be
       -0.100008786 -0.24716477 0.14938952 -0.22162747
000270 3e 95 20 be 63 51 81 be fe a0 b5 be a6 f2 09 bd
       -0.15681931 -0.25257406 -0.3547439 -0.033678673
000280 55 54 8d be 03 e6 2e be 5c 21 76 be 1a b4 80 be
       -0.27603403 -0.1707993 -0.24036163 -0.25137407
000290 1a 9a c1 be 5e 99 69 be 9b 60 98 be 07 fe 74 be
       -0.37812883 -0.22812411 -0.29761204 -0.23925029
0002a0 58 21 74 bd a4 5d b4 3b 5e df 3d bd 54 ee 88 bd
       -0.05960211 0.005504327 -0.046355598 -0.066860825
0002b0 b7 ab 78 bd 99 29 05 be 88 29 e2 be bb 2d 78 3e
       -0.060710635 -0.1300415 -0.4417231 0.24236195
0002c0 f5 04 6b 3d ed b3 57 be d6 e0 08 be 49 95 1f 3e
       0.057377774 -0.2106473 -0.13367018 0.15584292
0002d0 30 b0 0a be 0f 90 b6 be 90 f4 9a bd 7d 0d 6a be
       -0.13543773 -0.35656783 -0.07566178 -0.22856708
0002e0 39 70 64 be cd b0 42 be 08 30 f9 bd a2 f1 a8 be
       -0.22308435 -0.19012757 -0.12167364 -0.3299685
0002f0 b1 00 69 be 44 38 93 be 34 b7 92 be 4b ba 2d be
       -0.2275417 -0.28753865 -0.28655398 -0.16965596
000300 91 58 8b be 05 14 8f be 1b 35 b0 bd 02 a6 69 bc
       -0.27216008 -0.2794496 -0.08603879 -0.014260771
000310 2e ab 32 be 4a ba b7 3d 4c 1e ea bd 7e 13 04 be
       -0.17448112 0.08971079 -0.1143156 -0.1289806
000320 54 00 f7 3b 8d 92 5d be 74 d9 f8 bb f1 74 b8 3e
       0.007537881 -0.21637936 -0.007594282 0.3602672
000330 d9 cf 41 bd b7 b2 ab be 9c 77 2a 3e b8 aa 49 be
       -0.04731736 -0.33534786 0.1664719 -0.1969403
000340 38 6a 2c be 59 22 06 be 4e 40 cc bd 58 c0 29 be
       -0.16837394 -0.1309904 -0.09973203 -0.1657728
000350 3c ca dd bd 8e 32 0b be fa ec 94 bd e9 73 54 be
       -0.10829589 -0.13593504 -0.07271762 -0.20747341
000360 87 25 84 be 12 3c 16 bd 94 c4 0a be b6 e3 0b be
       -0.2580988 -0.03667838 -0.13551551 -0.13661084
000370 b9 33 b0 be 5d 8a 8c be 98 e6 6c be 86 d6 22 3e
       -0.3441446 -0.27449313 -0.2313484 0.15902147
000380 31 0e 87 be 5c 48 90 be ad 38 9b be a9 da 0b be
       -0.26378015 -0.28180206 -0.30316678 -0.13657631
000390 30 0e 21 3e 53 35 c1 be 85 fa db 3b ba cf f2 be
       0.15728068 -0.37735996 0.006713214 -0.47424108
0003a0 54 93 26 be 90 69 02 be 16 cf 8c be 79 aa 95 be
       -0.16267139 -0.12735581 -0.27501744 -0.29231623
0003b0 c8 a4 26 be 02 92 06 3e 62 3d 2a 3b af 27 a4 be
       -0.16273797 0.13141635 0.0025976528 -0.32061526
0003c0 fc d7 6c bd 7f 15 c1 bd b7 37 1d be ef 76 ef 3c
       -0.057823166 -0.09427928 -0.15353285 0.029231517
0003d0 88 44 8d be 0e 9c f2 3c 85 a4 d9 be 97 ab cd be
       -0.27591348 0.029615428 -0.4250833 -0.40169975
0003e0 bb 3a 96 bd 0e 0d 1e be 15 96 e1 3d 11 78 e8 bd
       -0.07335421 -0.15434667 0.11014954 -0.11351026
0003f0 ec 08 81 be 15 cb 35 3e 5c 13 05 bf f0 f1 8f be
       -0.2520212 0.17753251 -0.51982665 -0.2811427

block1.2.weight f4 [128, 256]
000000 7e 45 cc 3c 95 ee 8b bd 83 90 a1 3b 60 b3 b7 bc
       0.02493548 -0.06832615 0.004930557 -0.0224244
000010 b2 01 ca bb d6 dc b2 3c 80 4a e4 3c f0 2e 4f 3c
       -0.006164753 0.021833818 0.027867556 0.012645468
000020 cc 03 2b bd f8 fb ec bc 27 4a 20 bd a0 99 4d 3c
       -0.041751668 -0.028928742 -0.039133217 0.012548834
000030 b0 49 d4 bc 1f 12 5d 3a 30 3c a1 bb ec 69 ad 3c
       -0.025914043 0.0008433181 -0.004920505 0.021168672
000040 40 ff 3b bd 2c 7c 4e bd bc 39 11 bd 23 a7 96 bc
       -0.045897722 -0.05041139 -0.03545545 -0.018390244
000050 28 b3 4d bc 9b ea 71 bd 08 94 da 3c 00 c4 a3 bd
       -0.012554921 -0.059061628 0.026681915 -0.079963684
000060 7e 4d 5f bd ef 83 eb 3c 39 71 56 3c be ab 56 3c
       -0.05451726 0.028749434 0.013088518 0.01310247
000070 fd 89 3f 3d 2c 20 17 3d 00 f0 b8 3a 47 f4 c0 3c
       0.046762455 0.036895916 0.0014109612 0.02355398
000080 8b 70 51 bd 5b 41 51 bd ab 9b 83 bd 17 7a e3 bc
       -0.05113272 -0.05108772 -0.06426176 -0.027768178
000090 a3 fb 17 3c e0 0a ee 3b 38 03 90 bd 4a f6 42 bd
       0.009276303 0.00726448 -0.07031864 -0.04759816
0000a0 e3 e8 6c bd 3c 12 a8 3c 1c 67 05 3d 15 1d 10 bd
       -0.057839286 0.020516507 0.032569036 -0.035183985
0000b0 1a 7d b7 ba 83 91 17 bc 18 94 a1 3c ce 0f 53 bd
       -0.0013999075 -0.009251001 0.019723937 -0.051528744
0000c0 a3 91 92 3c d8 b8 d1 bb ea c5 0d 3d 97 81 7d bc
       0.01789171 -0.006400209 0.034612574 -0.015472791
0000d0 28 81 71 bc 15 4c 5c bd d8 5f 39 3d 3c 47 51 bc
       -0.014740266 -0.053783495 0.04525742 -0.012773331
0000e0 7e bc 0c bd b4 e0 bd 3c 44 cc c6 bc 2a 19 32 3d
       -0.034359448 0.023178436 -0.024267323 0.04348103
0000f0 00 7d 69 bd c9 0a 83 bd 07 74 85 bd f4 12 5c 3d
       -0.057003975 -0.063985415 -0.06516271 0.053729013
000100 0a b4 39 bd 18 a2 05 bd 63 f0 9a bc c6 1a 25 3d
       -0.045337714 -0.032625288 -0.018913453 0.040308736
000110 bd 9c d0 3c be 9c 25 3d 9f 4d 59 bd 99 bf b9 bc
       0.025465364 0.040432684 -0.05305254 -0.022674369
000120 22 6b 6e bb 79 9c 4d 3d 98 1a 3c bd 27 07 8c bd
       -0.0036379774 0.050198052 -0.0459238 -0.06837302
000130 84 5f a1 3c f0 04 bf 3c e4 8a 22 bd 5f 3e 13 3d
       0.019698866 0.023317784 -0.039683238 0.035948154
000140 98 e7 2c 3c cf 41 7b bd ac a2 01 3d 86 74 83 bd
       0.010553263 -0.061342057 0.031649277 -0.064187095
000150 3c 5f f0 3c 7e ca 81 bd bc 80 6d bc 27 0f 82 bd
       0.029342286 -0.063374504 -0.014496025 -0.06350546
000160 30 9b 4f bd 1a 03 a5 bd 6c c1 e6 3c 85 19 a3 bc
       -0.050685108 -0.08057232 0.028168403 -0.01990963
000170 ca ca 8a 3c ae 2c 5e bd e8 1f 45 3d 8a a0 67 bc
       0.0169424 -0.05424183 0.04812613 -0.014137397
000180 c0 7c d8 ba f7 bf cf bb 41 8e 61 3c f5 fd 43 3c
       -0.0016516671 -0.0063400227 0.013766826 0.011962404
000190 89 d9 31 bc 88 ce 32 bc a8 1a 1f bd 93 4b e8 bc
       -0.010855087 -0.010913499 -0.03884378 -0.02835635
0001a0 3c 26 4e bd f0 7e 94 3c 7f 3e 29 bc 9a f7 89 bd
       -0.050329432 0.018126935 -0.010329842 -0.067366794
0001b0 d0 ce 94 3b 3f fb 22 bd 24 cc c5 bc a1 cd fb bc
       0.0045412555 -0.03979039 -0.024145193 -0.0307377
0001c0 a4 ac 05 3d c9 f1 45 3c 96 52 09 3b bb 36 67 bd
       0.032635346 0.012081572 0.0020953766 -0.05644868
0001d0 ee 02 a7 bd 86 cd 6b bd e8 00 f7 3c ca 28 60 3b
       -0.08154856 -0.05756905 0.0301518 0.0034204
0001e0 e8 2e 60 bd 49 82 b6 b9 98 82 10 3b 0e d3 b2 bc
       -0.054732233 -0.00034810815 0.0022050496 -0.021829154
0001f0 b0 66 1e bd d2 f6 82 bd 57 f6 26 bc 50 68 13 bd
       -0.03867215 -0.063947335 -0.010190568 -0.035988152
000200 a9 2f 96 3c 4d 1f a3 bd 97 68 2d bc 2b fa c0 bc
       0.018333273 -0.079649545 -0.010584018 -0.02355679
000210 40 2b 59 3b cf ff 87 bd 78 3d 27 3c 97 23 04 3d
       0.0033137351 -0.066405885 0.010207526 0.032260504
000220 8a 3b 63 bd a3 0b db 3c 3e c1 55 bc 73 2f 4b bc
       -0.055476703 0.026738947 -0.013046561 -0.0124014495
000230 77 7c 4b bd 7b 69 9f 3c 2f a9 e5 bc ba ff 81 bd
       -0.049679246 0.019459477 -0.028034775 -0.06347604
000240 36 69 37 bd 18 12 33 3c f7 4b d4 3c 6d 7f 2f bd
       -0.04477807 0.010929607 0.02591513 -0.042846132
000250 bc df 42 bd b8 66 13 bd 90 40 2e bc 28 03 72 3c
       -0.04757665 -0.035986632 -0.01063551 0.01477126
000260 f1 34 b8 bd 90 40 48 3c 41 fe 85 bd 36 4d f8 b9
       -0.08994473 0.012222424 -0.06542636 -0.00047359773
000270 6e f2 97 bd fc 99 14 3d 2b 36 14 3d 0d 7a 28 3d
       -0.07419287 0.036279663 0.03618447 0.04113202
000280 e4 c1 f2 bc da 35 05 3d 1d 2a 51 bd 28 dd 01 bd
       -0.02963347 0.03252206 -0.051065553 -0.03170505
000290 99 66 8c bd d6 0a 59 bd 50 94 2d bc 28 6b 4f 3c
       -0.068555064 -0.05298885 -0.0105944425 0.012659825
0002a0 d4 af c0 bc a9 c9 8e bd 88 b2 9b bc 7a fd 85 bd
       -0.023521341 -0.06972057 -0.019006029 -0.065424874
0002b0 2f 98 2a bd f8 01 ef bc ca d8 71 bd 6f c1 41 bd
       -0.04164904 -0.029175743 -0.059044637 -0.047303613
0002c0 5f 07 81 3c 39 98 30 bd 2a 97 a6 bc 17 df 1d bc
       0.015750585 -0.04311392 -0.020335753 -0.009635708
0002d0 69 0f a7 bc 03 15 2b bd 18 ce 09 3d 77 88 c0 3c
       -0.02039309 -0.041768085 0.033643812 0.023502572
0002e0 8f 64 54 3c 54 a9 bb 3b 66 65 b2 bd 42 9c 3f 3c
       0.012963428 0.0057269726 -0.087107465 0.01169497
0002f0 1e b3 65 bd 95 e8 9d bc 10 ac 78 3c 15 06 36 bd
       -0.056079023 -0.019275943 0.015177742 -0.044439394
000300 dc e4 da 3c 4c cf 45 3c f1 f0 ab 3c 79 8b ea 3c
       0.026720457 0.012073349 0.020988913 0.028630959
000310 b1 08 87 3b d2 ab ab bb 54 8d 17 3d c1 9a 2f bd
       0.004120909 -0.0052389884 0.037000015 -0.042872194
000320 44 ea 83 3b cc c7 27 bc ee b2 b7 bd 9a 5d ba bc
       0.0040257294 -0.010240506 -0.08969675 -0.02274971
000330 0a 12 34 3d 9c 3f 08 bd cf d6 9a bc 28 d2 0c bc
       0.043962516 -0.033263788 -0.018901257 -0.008595027
000340 8c d7 95 bc c3 de 80 bd 59 77 c7 bc 01 6e 86 bc
       -0.018291257 -0.062924884 -0.024348902 -0.016409876
000350 ae cf 7b 3a 98 47 22 bd 7d d1 fb 3c 7a 7f 0d 3d
       0.0009605837 -0.03961906 0.03073954 0.0345454
000360 a0 c5 76 3c 45 23 47 3b 86 c7 13 bd d8 fd 0c bc
       0.015061766 0.0030386013 -0.036078952 -0.008605443
000370 b6 ce d5 3c df d8 57 bd 51 b3 1b bd ac 26 4b bc
       0.026099544 -0.05269706 -0.038012806 -0.012399357
000380 02 64 2e 3d 72 77 0d 3d 22 c1 4e 3d 38 08 23 3d
       0.042575844 0.03453774 0.050477155 0.03980276
000390 60 bb 46 bb 00 39 0e ba ae 06 41 3c 29 e0 70 bd
       -0.0030324087 -0.0005425364 0.011781378 -0.058807526
0003a0 f0 84 68 bd 98 b0 ce bc 70 91 18 bd 18 05 78 3d
       -0.056767404 -0.02523069 -0.037248075 0.060551733
0003b0 36 dc 7d bd e5 58 2e bd 00 ab ef 3a 69 e6 1d 3d
       -0.061977588 -0.042565245 0.0018285215 0.038549814
0003c0 ac 1c a4 bc 06 fd 1b bd 44 97 b8 3c 59 f3 4c 3d
       -0.020033203 -0.0380831 0.022533067 0.050036762
0003d0 c0 fb 4c 3d 18 02 3a 3c c0 a8 ff 3a 43 9f 92 3c
       0.050044775 0.011353038 0.0019505247 0.017898208
0003e0 a1 bf 91 bd 5c 16 de 3c bc 1d f0 bb 22 93 4f bd
       -0.071166284 0.027110271 -0.0073277634 -0.050677426
0003f0 cc b3 bd bc 12 ff 8e bd 3f 9a 81 bd 3b 67 dd 3b
       -0.023157023 -0.069822446 -0.06328248 0.006756691

block1.2.bias f4 [128]
000000 88 27 84 bd 34 85 bd bd 99 04 cf bd 4a 66 85 3c
       -0.064528525 -0.09253922 -0.10108299 0.016284127
000010 e2 2f a8 bd 49 a1 33 bb 4a ed 90 bc d1 98 80 bd
       -0.08212258 -0.0027409366 -0.017691273 -0.062791474
000020 fb 63 6b bd b8 5c 78 be a1 51 da bd 0f aa ba 3c
       -0.057468396 -0.2425412 -0.10660101 0.022786168
000030 df 6e b2 bd d0 c6 e7 bc 0f 9f 35 be d1 95 e3 3c
       -0.08712553 -0.028293043 -0.17736457 0.027781399
000040 1a 7b 37 bc 37 42 a6 bd 22 1f c6 bd 64 0a 84 3d
       -0.011198783 -0.08118098 -0.09673907 0.06447294
000050 37 28 1d be d0 d7 e2 bc ff d1 16 3a a1 7e 86 bd
       -0.15347372 -0.027690798 0.0005753338 -0.06567121
000060 13 d0 83 bc 44 fe 19 3f 97 98 ab bd 39 5e 28 3e
       -0.016090428 0.60153604 -0.083787136 0.16442193
000070 3c 2f a9 bd 33 d5 82 3c 7f 69 96 bd f4 d1 6f bd
       -0.08260962 0.015970802 -0.073443405 -0.058549836
000080 af 26 ea 3e 3a 6e e2 bd 99 af 96 bd 44 91 bc bc
       0.45732638 -0.1105618 -0.07357711 -0.023018487
000090 07 4d af bd 4d 89 c6 bd aa 98 c3 3c ae 8e 29 bd
       -0.08559614 -0.09694157 0.023876507 -0.041395836
0000a0 7b 5a 38 be b4 24 94 3e 0c c2 89 bd 67 ce 61 bd
       -0.18003266 0.28934252 -0.06726465 -0.05512848
0000b0 c7 09 4a be 1d 5d 09 bd a7 62 0e 3c 57 fb 25 be
       -0.19730292 -0.033536065 0.008690513 -0.1620916
0000c0 22 5c 9f 3c 83 50 cb 3d 7c 3f 1d 3e 92 5d 89 3a
       0.019453112 0.09927466 0.15356249 0.0010480157
0000d0 9a e2 ab bd d5 c5 43 bd 3e e0 60 bc a0 47 43 bd
       -0.0839283 -0.04779609 -0.0137253385 -0.04767573
0000e0 1f a9 9a bc d2 a9 c9 bd 13 80 9e bc 7c e0 12 bd
       -0.018879471 -0.09846844 -0.01934818 -0.035858616
0000f0 a9 fe 16 3f 99 a9 68 bd 7d 2f 11 3e 85 6d 09 be
       0.5898233 -0.056802366 0.14178272 -0.13420685
000100 50 00 b2 bc 95 b3 57 3e b0 cf f4 bd bb c8 72 bc
       -0.021728665 0.21064599 -0.11953676 -0.014818366
000110 c1 6c 01 bd 5a 74 54 be f6 fb ce bd 69 dc a2 bd
       -0.031597856 -0.2074751 -0.101066515 -0.07952196
000120 a2 62 b1 bc 5d 2f 71 bd 11 dd 81 3d 6b f0 3d bc
       -0.021653477 -0.05888306 0.06340993 -0.011592965
000130 64 30 75 bd 65 bd b5 bd 3c 34 df bd ac 1e ab bd
       -0.059860602 -0.08874015 -0.10898635 -0.083554596
000140 97 cf 15 bc 3b 64 b5 bd 52 dc a8 bd b4 36 07 3f
       -0.009143732 -0.08857008 -0.08245148 0.52817845
000150 2f 2f 2f 3f 92 f5 94 bd 22 9a f6 bc b1 3a cf bd
       0.6843137 -0.07273401 -0.030102793 -0.10118616
000160 6b e6 53 be b1 88 eb bd 10 88 17 bd 92 4a 33 3e
       -0.20693366 -0.11500681 -0.036994994 0.17508915
000170 6b 80 31 be 8b 42 5e bd 31 c5 17 bd 95 a7 67 bd
       -0.17334144 -0.05426268 -0.03705329 -0.056556303
000180 b8 95 80 bd d1 a7 87 bd ac ef 93 bd b6 a4 d5 bd
       -0.062785566 -0.06623805 -0.07223448 -0.10431807
000190 a0 28 ab bd 5f 16 cf 3e e7 36 39 bd cd cc af 3e
       -0.08357358 0.40446755 -0.045218375 0.34335938
0001a0 50 ee 2a bc be 6a a5 bd 76 1b 93 3c 1f 7a 29 3f
       -0.010432795 -0.08077 0.01795743 0.66201967
0001b0 7c 95 21 bd a2 af ef bd f3 e7 0f bd 31 6c ad bd
       -0.0394492 -0.11703421 -0.035133313 -0.084679015
0001c0 9d f3 3c bc fd 0e 44 3f 7f ba 6c bd f3 98 49 3d
       -0.011532691 0.7658537 -0.057795044 0.04921813
0001d0 0f 7d 99 bc 66 e6 29 bd 67 4d 96 bd 15 9b dc bc
       -0.01873639 -0.04147949 -0.07338982 -0.026929418
0001e0 1b f8 b8 bd 7f 8d 4b 3f 3d 1d 61 bd 32 32 a0 bd
       -0.09031697 0.7951278 -0.054959524 -0.07822074
0001f0 6a 4e 02 3f a0 75 c3 bd ca 35 4b be 8f d3 78 bd
       0.509009 -0.095439196 -0.19844738 -0.060748633

block1.4.weight f4 [3, 128]
000000 94 23 85 bd a5 7b bd bb 1c 46 c3 bb 25 a9 3d 3e
       -0.065009266 -0.005782562 -0.0059592854 0.18521555
000010 d1 1f fd bc 15 31 2a bd 90 5c 82 3d 67 a9 30 bd
       -0.03089896 -0.041550715 0.06365311 -0.043130305
000020 18 33 62 bc cb 01 88 bd 54 e8 19 bd 6a 3d 83 3c
       -0.013806127 -0.06640967 -0.03757508 0.016020495
000030 93 69 9f 3d ea 38 49 3c 79 c0 61 3e bd f1 b4 3c
       0.077838086 0.012281636 0.22046079 0.022087926
000040 25 69 22 3d 17 3c 43 bd 39 65 02 be 39 91 0e be
       0.039651055 -0.047664728 -0.12733926 -0.13922586
000050 cf 2f ab 3c 4a f3 cb ba b9 5d 9c bd 36 89 f9 3b
       0.02089682 -0.0015560177 -0.07635064 0.007615234
000060 d6 33 c8 3c 45 7c 00 be 9e 88 e0 3d 80 72 6e 3e
       0.02443878 -0.12547405 0.10963558 0.23285866
000070 95 e7 16 3d 89 e0 94 bc 8d 92 aa 3d 7f 82 d4 3d
       0.036841948 -0.018173473 0.083287336 0.10376453
000080 f4 99 cc 3e 09 c6 f6 3b 9b 84 40 bb 44 c1 8a bd
       0.39961207 0.007530932 -0.0029375914 -0.06775144
000090 31 ee 8b 3d cb ca da bc 17 b0 35 3c b0 e4 dd bc
       0.06832541 -0.026708027 0.011089346 -0.027086586
0000a0 a0 5e 44 3e 73 85 0e bd 08 93 a7 bd 9c 9a 94 bc
       0.19176722 -0.034795236 -0.08182341 -0.01814013
0000b0 c8 b4 0e bd df 46 94 bd 49 99 50 bd e4 fb 60 3c
       -0.034840375 -0.0724008 -0.050927434 0.01373193
0000c0 c8 f0 0e 3d 17 a3 0d be db 34 83 3e c0 92 20 bb
       0.034897596 -0.13831745 0.25626263 -0.0024501532
0000d0 c1 2d 33 be 1b ce 25 3d fb c6 1f 3a 29 ef d5 bb
       -0.17497922 0.04047976 0.0006095019 -0.0065287543
0000e0 6e b6 12 3e bb a6 ea 3c fd 03 2c bd fa ce d0 bc
       0.14327404 0.028643956 -0.04199599 -0.02548932
0000f0 70 2e 8b 3c c4 d2 9f 3c 4d 71 10 bd 2d f4 89 3e
       0.016989917 0.01950968 -0.035264302 0.26944104
000100 5f 84 5c bd 82 7e 1a 3e 0b df 6e 3d 0e 2c 34 3d
       -0.053837176 0.15087321 0.05831818 0.043987326
000110 71 26 98 3d a5 67 79 3b 72 7c db 3c 64 cb 89 3c
       0.07429207 0.0038056162 0.026792739 0.016820617
000120 75 c5 87 bd 28 33 62 bd 48 4f 3a 3e dc f4 ad bc
       -0.06629459 -0.055224568 0.18194306 -0.021234922
000130 55 1f a2 3d 74 81 c4 bc 99 02 75 3c f1 c9 70 3d
       0.07916132 -0.02398751 0.014954233 0.058786336
000140 ef 7c 93 3d c6 05 61 bd 4b 19 d0 3c 34 f6 dd bd
       0.072015636 -0.054937147 0.025402686 -0.10837975
000150 2c 8c f0 bd 35 6c f8 3c 84 89 c2 bd 22 fb 9c 3d
       -0.11745486 0.030325035 -0.09498885 0.07665087
000160 01 28 0d be 97 da 68 bc eb f9 29 bd 7f 08 f2 bd
       -0.13784792 -0.014212272 -0.041498106 -0.11818027
000170 40 18 14 bb e3 23 e8 3c 55 63 2c 3e 29 b2 b8 3a
       -0.0022597462 0.028337425 0.16834767 0.0014091182
000180 07 b5 f1 bc 08 e7 95 bc f9 cf 2d 3d 11 1b a9 bd
       -0.029505266 -0.01829864 0.042434666 -0.08257116
000190 aa e5 cb bc 65 fe 9f bd d5 d9 25 3d e6 31 4e bd
       -0.024889786 -0.07812194 0.040490944 -0.050340556
0001a0 57 42 22 3d e3 75 83 3d 93 db e6 3c 44 03 e3 bd
       0.039614048 0.064189695 0.028180873 -0.11084607
0001b0 be bb 31 3a fa 18 ae 3c 46 73 fd bc 2e c5 c4 bb
       0.000677999 0.021252144 -0.030938756 -0.006004951
0001c0 6d 14 33 3a a0 88 36 be 9d 85 18 3c ee 89 29 3e
       0.0006831352 -0.17825556 0.0093092 0.16556522
0001d0 e6 88 f9 b8 2e 54 e7 3c 2e 14 07 bb ec aa 4e 3c
       -0.000118987446 0.028238382 -0.0020611393 0.012613993
0001e0 49 29 19 be 99 fc ad 3e e4 0b 17 bd 8e c0 41 bd
       -0.14957155 0.3398178 -0.036876574 -0.047302775
0001f0 72 bd 10 bd 23 b7 8b 3d 8c 65 5c bc 6d 1c 8c bc
       -0.03533692 0.0682204 -0.013451945 -0.017103398
000200 c8 9f 9c bc 9a c5 62 3c 83 b8 d1 ba ba d7 9d 3e
       -0.019119158 0.013841057 -0.0016000423 0.3082865
000210 a1 a3 22 bd e6 ac 0d bd 7a 91 84 3d 69 4d 82 3d
       -0.03970683 -0.034588717 0.0647306 0.06362421
000220 47 74 a2 ba 69 6b a1 bf 58 68 20 be 8f 3f 17 3c
       -0.0012394272 -1.2610904 -0.15664804 0.009231462
000230 72 88 ff bc 68 cd 12 bc bf 10 32 bd 82 8c 4e 3d
       -0.031192992 -0.0089601055 -0.043473 0.050426967
000240 86 19 43 3b ed 67 e3 3c 08 56 27 3e 74 7b a4 bb
       0.0029769852 0.027759517 0.16341412 -0.0050195996
000250 32 4b 8b 3d 8b f2 18 3d b6 bf f7 3b fb dc 1f 3d
       0.06801452 0.037340682 0.0075606955 0.039029103
000260 b0 51 e3 ba 53 3c c7 bd 6e b8 ce 3c 81 ce 91 3e
       -0.001734307 -0.09728303 0.025234427 0.28477862
000270 8a c4 d9 bc 63 f3 87 3c 12 33 be 3d 57 4a 54 3c
       -0.026582975 0.016595548 0.09287085 0.012957177
000280 00 7d ae 3e 08 96 37 3e 73 a3 ab 3c 45 73 22 3c
       0.34079742 0.17928326 0.020951962 0.009915178
000290 f8 26 a6 3b 3f 9d 97 bd 8a ad 98 bd 49 f9 08 bd
       0.0050705634 -0.07403039 -0.07454975 -0.03344086
0002a0 9a 21 74 bd 7a 5b b7 3d 6c 9a 82 be 92 28 f4 bb
       -0.059602357 0.08952995 -0.2550844 -0.0074511254
0002b0 89 02 16 3e 10 c9 07 3c c8 09 57 3c 9f d6 31 be
       0.14649405 0.008287683 0.013124891 -0.17367028
0002c0 71 53 46 bd 24 78 88 3e 88 87 6e 3e 99 48 1e bd
       -0.04841942 0.2665416 0.23293889 -0.038643453
0002d0 83 e8 e3 bc 8a 8c a2 3d f7 b3 4c bd 41 a4 27 3d
       -0.027820831 0.07936962 -0.049976315 0.04092813
0002e0 76 33 54 bf c1 10 c1 bb 27 83 0c bd 32 7d 4b bd
       -0.82891023 -0.00589189 -0.034304764 -0.049679942
0002f0 33 0e 91 3e 79 07 ba 3b 06 f5 42 bd 08 cf fc be
       0.28331146 0.0056771603 -0.047596954 -0.49376702
000300 48 d2 36 3c 38 bf c7 bd 94 30 be bd e6 cd 64 3d
       0.011158533 -0.09753269 -0.09286609 0.055860423
000310 b0 8e 37 3e 04 12 84 bb e6 8e 7e 3d e8 85 98 3c
       0.17925525 -0.004030468 0.062147997 0.018618539
000320 9f 40 9b bc 8d b6 d1 3c e4 bf c4 3e 0f 34 8e 3c
       -0.018951712 0.025599742 0.3842765 0.017358808
000330 08 e1 21 3b a1 b9 18 ba 71 ce c3 3c 8d 96 bb 3d
       0.002470078 -0.00058260007 0.02390215 0.09159575
000340 a5 77 cb 3a a1 7f c4 3d cc 18 28 3d 71 91 89 bd
       0.0015523328 0.09594656 0.041039273 -0.06717194
000350 0c 4c d2 bd c1 8d 8f 3c 0d af f5 3d c8 04 5d 3c
       -0.10268411 0.017523648 0.11996279 0.0134899095
000360 a3 cb 92 bf 9f ee 25 bd 3e ef 0f 3c 73 37 bb 3e
       -1.1468395 -0.04051077 0.008785067 0.36565742
000370 5c bb 45 be 34 80 81 bb c2 d3 6d 3e 72 0f 7a ba
       -0.19309753 -0.0039520506 0.2322531 -0.00095390447
000380 7a 6a fe bc 99 63 02 bc d0 53 26 b9 0b 1f 3c be
       -0.031056631 -0.007958316 -0.00015862216 -0.18371217
000390 dc b8 cf 3c 09 29 db bd 84 2c df bc 89 76 fb 3d
       0.025356703 -0.10701186 -0.027242906 0.12278468
0003a0 13 b2 b4 3d 17 c4 0e bc bf 7c ad 3c 5b 92 9b bd
       0.088230275 -0.008713744 0.021177648 -0.075962745
0003b0 75 80 e6 3c d5 3d 64 3d e8 2a 42 3d 9b a0 1b bd
       0.028137425 0.05572303 0.0474042 -0.037994962
0003c0 65 e3 a7 3c 2b 38 f1 bd 97 4d 9a 3d a3 0c 84 bf
       0.020494172 -0.11778291 0.0753433 -1.0316356
0003d0 22 fa cc 3a 2d e9 19 3a 73 71 b3 3d 38 e4 8c 3d
       0.001563851 0.0005871233 0.08761873 0.06879467
0003e0 97 05 36 3e 8d 1e b2 3e 70 95 83 bc 75 8d 67 bd
       0.1777557 0.34788933 -0.016062468 -0.05653139
0003f0 52 25 47 bd 46 8d 9f 3c ef c7 8f be 01 3c a7 3d
       -0.048619576 0.019476544 -0.28082225 0.08165742

block1.4.bias f4 [3]
000000 d1 7d 06 bf 3d e7 19 3b cb 15 bc be
       -0.5253573 0.0023483776 -0.36735377
